========================================================================================================================
Layer (type:depth-idx)                        Input Shape               Output Shape              Param #
========================================================================================================================
Model                                         [4, 2, 80, 25, 1]         [4, 263]                  --
├─BatchNorm1d: 1-1                            [4, 50, 80]               [4, 50, 80]               100
├─ModuleList: 1-2                             --                        --                        --
│    └─st_gcn: 2-1                            [4, 2, 80, 25]            [4, 64, 80, 25]           --
│    │    └─ConvTemporalGraphical: 3-1        [4, 2, 80, 25]            [4, 64, 80, 25]           192
│    │    └─Sequential: 3-2                   [4, 64, 80, 25]           [4, 64, 80, 25]           37,184
│    │    └─ReLU: 3-3                         [4, 64, 80, 25]           [4, 64, 80, 25]           --
│    └─st_gcn: 2-2                            [4, 64, 80, 25]           [4, 64, 80, 25]           --
│    │    └─ConvTemporalGraphical: 3-4        [4, 64, 80, 25]           [4, 64, 80, 25]           4,160
│    │    └─Sequential: 3-5                   [4, 64, 80, 25]           [4, 64, 80, 25]           37,184
│    │    └─ReLU: 3-6                         [4, 64, 80, 25]           [4, 64, 80, 25]           --
│    └─st_gcn: 2-3                            [4, 64, 80, 25]           [4, 64, 80, 25]           --
│    │    └─ConvTemporalGraphical: 3-7        [4, 64, 80, 25]           [4, 64, 80, 25]           4,160
│    │    └─Sequential: 3-8                   [4, 64, 80, 25]           [4, 64, 80, 25]           37,184
│    │    └─ReLU: 3-9                         [4, 64, 80, 25]           [4, 64, 80, 25]           --
│    └─st_gcn: 2-4                            [4, 64, 80, 25]           [4, 64, 80, 25]           --
│    │    └─ConvTemporalGraphical: 3-10       [4, 64, 80, 25]           [4, 64, 80, 25]           4,160
│    │    └─Sequential: 3-11                  [4, 64, 80, 25]           [4, 64, 80, 25]           37,184
│    │    └─ReLU: 3-12                        [4, 64, 80, 25]           [4, 64, 80, 25]           --
│    └─st_gcn: 2-5                            [4, 64, 80, 25]           [4, 128, 40, 25]          --
│    │    └─Sequential: 3-13                  [4, 64, 80, 25]           [4, 128, 40, 25]          8,576
│    │    └─ConvTemporalGraphical: 3-14       [4, 64, 80, 25]           [4, 128, 80, 25]          8,320
│    │    └─Sequential: 3-15                  [4, 128, 80, 25]          [4, 128, 40, 25]          148,096
│    │    └─ReLU: 3-16                        [4, 128, 40, 25]          [4, 128, 40, 25]          --
│    └─st_gcn: 2-6                            [4, 128, 40, 25]          [4, 128, 40, 25]          --
│    │    └─ConvTemporalGraphical: 3-17       [4, 128, 40, 25]          [4, 128, 40, 25]          16,512
│    │    └─Sequential: 3-18                  [4, 128, 40, 25]          [4, 128, 40, 25]          148,096
│    │    └─ReLU: 3-19                        [4, 128, 40, 25]          [4, 128, 40, 25]          --
│    └─st_gcn: 2-7                            [4, 128, 40, 25]          [4, 128, 40, 25]          --
│    │    └─ConvTemporalGraphical: 3-20       [4, 128, 40, 25]          [4, 128, 40, 25]          16,512
│    │    └─Sequential: 3-21                  [4, 128, 40, 25]          [4, 128, 40, 25]          148,096
│    │    └─ReLU: 3-22                        [4, 128, 40, 25]          [4, 128, 40, 25]          --
│    └─st_gcn: 2-8                            [4, 128, 40, 25]          [4, 256, 20, 25]          --
│    │    └─Sequential: 3-23                  [4, 128, 40, 25]          [4, 256, 20, 25]          33,536
│    │    └─ConvTemporalGraphical: 3-24       [4, 128, 40, 25]          [4, 256, 40, 25]          33,024
│    │    └─Sequential: 3-25                  [4, 256, 40, 25]          [4, 256, 20, 25]          591,104
│    │    └─ReLU: 3-26                        [4, 256, 20, 25]          [4, 256, 20, 25]          --
│    └─st_gcn: 2-9                            [4, 256, 20, 25]          [4, 256, 20, 25]          --
│    │    └─ConvTemporalGraphical: 3-27       [4, 256, 20, 25]          [4, 256, 20, 25]          65,792
│    │    └─Sequential: 3-28                  [4, 256, 20, 25]          [4, 256, 20, 25]          591,104
│    │    └─ReLU: 3-29                        [4, 256, 20, 25]          [4, 256, 20, 25]          --
│    └─st_gcn: 2-10                           [4, 256, 20, 25]          [4, 256, 20, 25]          --
│    │    └─ConvTemporalGraphical: 3-30       [4, 256, 20, 25]          [4, 256, 20, 25]          65,792
│    │    └─Sequential: 3-31                  [4, 256, 20, 25]          [4, 256, 20, 25]          591,104
│    │    └─ReLU: 3-32                        [4, 256, 20, 25]          [4, 256, 20, 25]          --
├─Conv2d: 1-3                                 [4, 256, 1, 1]            [4, 263, 1, 1]            67,591
========================================================================================================================
Total params: 2,694,763
Trainable params: 2,694,763
Non-trainable params: 0
Total mult-adds (Units.GIGABYTES): 7.29
========================================================================================================================
Input size (MB): 0.06
Forward/backward pass size (MB): 196.74
…
